…
n>
<span class="n">model</span><span class="o">.</span><span class="n">hybridize</span><span class="p">()</span>
</pre></div>
</div>
</div>
<div class="nboutput docutils container">
<div class="prompt empty docutils container">
</div>
<div class="output_area docutils container">
<div class="highlight"><pre>
--------------------------------------------------------------------------------
        Layer (type)                                Output Shape         Param #
================================================================================
               Input                            (4, 3, 128, 128)               0
        Activation-1                           (4, 32, 127, 127)               0
            Conv2D-2                           (4, 32, 127, 127)             416
         MaxPool2D-3                             (4, 32, 62, 62)               0
         BatchNorm-4                             (4, 32, 62, 62)             128
        Activation-5                             (4, 64, 61, 61)               0
            Conv2D-6                             (4, 64, 61, 61)            8256
         MaxPool2D-7                             (4, 64, 29, 29)               0
         BatchNorm-8                             (4, 64, 29, 29)             256
        Activation-9                            (4, 128, 28, 28)               0
           Conv2D-10                            (4, 128, 28, 28)           32896
        MaxPool2D-11                            (4, 128, 13, 13)               0
        BatchNorm-12                            (4, 128, 13, 13)             512
          Flatten-13                                  (4, 21632)               0
       Activation-14                                    (4, 100)               0
            Dense-15                                    (4, 100)         2163300
          Dropout-16                                    (4, 100)               0
       Activation-17                                     (4, 10)               0
            Dense-18                                     (4, 10)            1010
          Dropout-19                                     (4, 10)               0
            Dense-20                                      (4, 2)              22
      LeafNetwork-21                                      (4, 2)               0
================================================================================
Parameters in forward computation graph, duplicate included
   Total params: 2206796
   Trainable params: 2206348
   Non-trainable params: 448
Shared params in forward computation graph: 0
Unique parameters in model: 2206796
--------------------------------------------------------------------------------
</pre></div></div>
…
